models/irt/checkpoint.pt (torch_old, 7704 bytes, 2 tensors)

alpha.weight f4 [903, 1]
0	0xbfe3c7cd	-1.7795349
1	0xbfeef5e7	-1.8668793
2	0xc01df4f7	-2.4680765
3	0xbf1c7e06	-0.61129797
4	0xbfed6b7f	-1.854843
5	0xbf94d1d8	-1.1626539
6	0xbf73988b	-0.9515464
7	0xbfa86292	-1.3155081
8	0xbf829253	-1.0200905
9	0xbf9dfa7d	-1.2342068
10	0xbf041890	-0.5159998
11	0xbf0551e0	-0.52078056
12	0xbf98cd5a	-1.1937668
13	0xbf5d40e8	-0.86427164
14	0xbf4cd21d	-0.8000811
15	0xc00092d3	-2.0089614
16	0xbf526b77	-0.8219523
17	0xbff920b5	-1.9463106
18	0xbfb7cc80	-1.4359283
19	0xbfa6a3ba	-1.3018715
20	0xbf89ffdb	-1.0781206
21	0xbf91c2e7	-1.1387604
22	0xbf3b70a7	-0.7321877
23	0xbf452c18	-0.77020407
24	0xbf9b6262	-1.2139399
25	0xbfa2fade	-1.2732809
26	0xbe6cd0ec	-0.23126572
27	0xbf9672de	-1.1753805
28	0xbf909661	-1.1295892
29	0xbfa894bc	-1.317039
30	0xbf882a3e	-1.0637891
31	0xbf1d73b5	-0.6150468
32	0xbf4e87e0	-0.8067608
33	0xbf9f30e9	-1.2436801
34	0xbfc42450	-1.5323582
35	0xbf67f788	-0.9061208
36	0xbf949f6e	-1.1611154
37	0xbf7cc4a2	-0.9873754
38	0xbf527922	-0.82216084
39	0xbfa58330	-1.293066
40	0xbfee69be	-1.862602
41	0xbf5d6880	-0.8648758
42	0xbfc0c104	-1.5058904
43	0xbf8ad03a	-1.0844796
44	0xbecf2ac3	-0.40462312
45	0xbf6d5800	-0.927124
46	0xbfa4c149	-1.2871486
47	0xbf3feda5	-0.7497199
48	0xbf6b067f	-0.9180679
49	0xbfcaf7a1	-1.585682
50	0xc00330b4	-2.0498476
51	0xbf1bedc4	-0.60909677
52	0xbf5304e9	-0.8242937
53	0xbf75ad85	-0.95967895
54	0xbfff8fcb	-1.9965757
55	0xc00e9304	-2.2277231
56	0xc024c802	-2.5747075
57	0xc017dcff	-2.3728635
58	0xbfd60c4a	-1.67225
59	0xbf3f8022	-0.7480489
60	0xbf3a92ba	-0.72880137
61	0xbfc80be8	-1.5628633
62	0xbf682597	-0.9068236
63	0xbee74ce1	-0.4517584
64	0xbf7e20a6	-0.9926857
65	0xbfb8596b	-1.4402288
66	0xbfe60897	-1.7971371
67	0xbfc203ea	-1.5157444
68	0xbf30390c	-0.68837047
69	0xbf4a671b	-0.79063576
70	0x3da80b50	0.08205283
71	0xbf4f15e8	-0.808928
72	0xbfaaec89	-1.3353435
73	0x3d1cabf4	0.038249925
74	0xbf18324e	-0.5945176
75	0xbf1e9b71	-0.61955935
76	0xbf335ef0	-0.7006674
77	0xc00d2bd7	-2.2058008
78	0xbf7446d9	-0.95420605
79	0xbfa326f7	-1.2746266
80	0xbef677b7	-0.4813821
81	0xbfd936b8	-1.6969824
82	0xc00b4725	-2.1762173
83	0xbfc4b35f	-1.536724
84	0xbf9b19e1	-1.2117273
85	0xbf46f9ed	-0.77725106
86	0xbf2fa81e	-0.686159
87	0xc01d8ac1	-2.4615939
88	0xbfea5507	-1.8307198
89	0xbfb98d20	-1.4496193
90	0xbfecffbf	-1.8515548
91	0xbfb6042a	-1.4220021
92	0xbfc446fb	-1.5334162
93	0xbf9de063	-1.2334102
94	0xbfaea9f4	-1.3645616
95	0xbf8fb618	-1.1227446
96	0xbf8230df	-1.0171164
97	0xbfbda4b3	-1.4815887
98	0xbfec9673	-1.8483413
99	0xbfa46563	-1.2843441
100	0xbfc6152d	-1.5475212
101	0xc0071d99	-2.1111815
102	0xbffa432f	-1.9551753
103	0x3e5c0e23	0.21489768
104	0xbf95bcf8	-1.1698294
105	0xbef88af0	-0.485435
106	0xbfe4d7fd	-1.7878414
107	0xbfd070aa	-1.6284382
108	0xbf8dc13e	-1.1074598
109	0xbf9729d0	-1.1809635
110	0xbfceefbd	-1.6166912
111	0xbfe8368d	-1.8141648
112	0xbfa15bfe	-1.2606199
113	0xbf86b218	-1.05231
114	0xbec298e8	-0.38007283
115	0xbfd13718	-1.6344938
116	0xbfd240b2	-1.6425993
117	0xbf14540c	-0.57940745
118	0xbf93a512	-1.153475
119	0xbfade70b	-1.3586134
120	0xbf9d10ef	-1.2270793
121	0xbf0ed62d	-0.55795556
122	0xbdfe2d74	-0.12411013
123	0xbf214686	-0.62998235
124	0xbe8e4b66	-0.277919
125	0xbea93ae7	-0.3305275
126	0xbf41ac54	-0.75653577
127	0xbf86bdf7	-1.0526723
128	0xbf6c1a0b	-0.9222724
129	0xbf88b09a	-1.0678895
130	0xbf21907a	-0.6311108
131	0xbf30b373	-0.6902382
132	0xbf1ef2d1	-0.6208926
133	0x3f8ba38e	1.0909288
134	0x3e74094a	0.23831668
135	0xbf4750fd	-0.77857953
136	0xbea431a1	-0.32069114
137	0x3d2a3599	0.04155502
138	0xbdb91487	-0.090371184
139	0x3eac145a	0.33609277
140	0xbef16443	-0.47146806
141	0xbe7a4269	-0.24439396
142	0xbf2b2b50	-0.66862965
143	0xbf9f70d9	-1.2456313
144	0xbf65ee9b	-0.8981721
145	0xbe871751	-0.26384977
146	0xbf44b224	-0.7683432
147	0xc024fdb9	-2.577986
148	0xbfbf45f4	-1.4943223
149	0xbfe96b11	-1.8235799
150	0xbf9d78ab	-1.230245
151	0xbf8feda1	-1.1244394
152	0xbfe2b2d4	-1.7710824
153	0xbfdde064	-1.7334104
154	0xbfd47199	-1.6597167
155	0xbf8fe128	-1.1240587
156	0xc016169f	-2.3451307
157	0xbfd16819	-1.6359893
158	0xbfe2f2a8	-1.7730303
159	0xbf9bd57f	-1.2174529
160	0xbf7d2a2c	-0.98892474
161	0xbf6d5a82	-0.9271623
162	0xbf667b5b	-0.90031976
163	0xbf691b23	-0.9105703
164	0xbf55b5ee	-0.8348073
165	0xbf3293d0	-0.69756794
166	0xbf1e21e8	-0.61770487
167	0xbdf54ed0	-0.11977923
168	0xbf90a539	-1.1300422
169	0xbedf2699	-0.43584135
170	0xc01c6999	-2.4439452
171	0xbfb2a074	-1.3955216
172	0xbfb87281	-1.4409944
173	0xbfaf74fa	-1.3707573
174	0xbf9b3143	-1.2124408
175	0xbfc8e142	-1.5693743
176	0xbfb248fc	-1.3928523
177	0xbfcbcf99	-1.5922729
178	0xbfb24e6e	-1.3930185
179	0xbfba221b	-1.4541658
180	0xbfd0bf6c	-1.6308417
181	0xbefeddb8	-0.49778533
182	0xc002020e	-2.0313754
183	0xbfd1e1fa	-1.6397088
184	0xbfc7a9c6	-1.5598686
185	0xbfe805f0	-1.8126812
186	0xbfa96196	-1.3232906
187	0xbfcb7874	-1.5896134
188	0xbfb47466	-1.4098022
189	0xbf1a90ec	-0.60377383
190	0xbf0e9306	-0.5569309
191	0xbf6155d1	-0.8802157
192	0xc05357cf	-3.3022344
193	0xbec417af	-0.3829932
194	0xc008bec8	-2.1366444
195	0xbff2b032	-1.896002
196	0xc005715c	-2.085044
197	0xbeef859f	-0.46781632
198	0xbf888e03	-1.0668339
199	0xbf5e4a2a	-0.86831915
200	0xbffd4d09	-1.9789134
201	0xbf9f5f62	-1.2450984
202	0xbe98445f	-0.29739663
203	0xbe858186	-0.2607538
204	0xbf7d232d	-0.988818
205	0xbf937f29	-1.1523181
206	0xbede4986	-0.4341547
207	0xbfeb7a0f	-1.8396624
208	0xbf251b63	-0.64494914
209	0xbfcc21cb	-1.5947813
210	0xbee112fd	-0.439598
211	0xbf16a876	-0.588508
212	0xbfc348b3	-1.5256561
213	0xbfe432fd	-1.782806
214	0xbf9a95f1	-1.2077008
215	0xbf167151	-0.5876666
216	0xbf4f1223	-0.8088705
217	0xbfd6b519	-1.6774017
218	0xbf92a337	-1.1456059
219	0xbfcfd45c	-1.6236682
220	0xbf570a17	-0.8399977
221	0xbf3bc485	-0.7334674
222	0xbfac7d9c	-1.3475833
223	0xbefc1e59	-0.49241903
224	0xbe3fb053	-0.18719606
225	0xbfd805f0	-1.6876812
226	0xbf852f89	-1.0405132
227	0xbf4d0577	-0.80086464
228	0xbf964c32	-1.1742003
229	0xbf0e50e2	-0.5559217
230	0xbfb0105b	-1.3754991
231	0xbfa67c20	-1.300663
232	0xbfa70ffc	-1.3051753
233	0xc018377a	-2.378386
234	0xbee0548f	-0.43814513
235	0xbf5464f3	-0.82966536
236	0xbfab9665	-1.3405272
237	0xbf74c9c0	-0.95620346
238	0xbee6c172	-0.45069462
239	0xbfd256df	-1.6432761
240	0xbe9f19d6	-0.310744
241	0xbf8c55ac	-1.0963645
242	0xbfc9f7ac	-1.5778708
243	0xbfa48a05	-1.285462
244	0xbf78f4bd	-0.9724844
245	0xbfab2683	-1.3371128
246	0xbf909ccf	-1.1297854
247	0xbf4d25b3	-0.8013565
248	0xbfab75c7	-1.3395318
249	0xbfe3d087	-1.7798012
250	0xbf53503f	-0.8254432
251	0xbf3fafb9	-0.74877506
252	0xbfc7776a	-1.5583317
253	0xbfac4dcb	-1.346124
254	0xbf9a06e2	-1.203335
255	0xbf1a750a	-0.6033484

beta.weight f4 [903, 1]
0	0x3fd76b67	1.6829652
1	0x3f6eec38	0.9332919
2	0x3f575f25	0.84129554
3	0x3fecf455	1.8512064
4	0x3f8fa993	1.1223625
5	0x3f9d6ba9	1.229848
6	0x3f8c76ab	1.0973715
7	0xbdd258c5	-0.10270838
8	0x3e3b0d00	0.18266678
9	0xbcbab514	-0.022791423
10	0xbe05520d	-0.13019581
11	0x3eaa65de	0.33280843
12	0x3f7410d5	0.95338184
13	0x3ec8d272	0.39223057
14	0x3f8d53a2	1.1041148
15	0x3e3bf47f	0.18354987
16	0xbd2fcce7	-0.04292002
17	0x3e01b725	0.1266752
18	0xbf15abb0	-0.584651
19	0x3b0c2c19	0.002138859
20	0x3dbc6b87	0.09200197
21	0x3e683504	0.22676474
22	0x3f0d6a4b	0.55240315
23	0xbd6367c2	-0.055518873
24	0x3fed47f5	1.8537585
25	0x3f0fec8b	0.5622031
26	0x3f4523b2	0.7700759
27	0x3f895440	1.0728836
28	0xbf992425	-1.1964155
29	0x3d82dfea	0.063903645
30	0x3f0888ef	0.53333944
31	0x3f686913	0.9078533
32	0x3f9bae30	1.2162533
33	0x3f16855e	0.5879725
34	0xbedefd51	-0.4355264
35	0x3e92373a	0.2855776
36	0xbfa8f770	-1.3200512
37	0xbdde74d2	-0.108621255
38	0x3e8eb493	0.27872142
39	0x3e910b87	0.28329107
40	0x3fb960f8	1.4482718
41	0x3f86aaf1	1.0520917
42	0x3f92b9c3	1.146294
43	0xbed1c325	-0.40969196
44	0xbe95280d	-0.2913212
45	0xbe03fb5f	-0.12888859
46	0xbf1a4cb1	-0.6027327
47	0xbeb12594	-0.34598982
48	0x3e557e40	0.20848942
49	0xbfa808a1	-1.3127633
50	0x3dc6d1ae	0.09707962
51	0xbef1d98e	-0.47236294
52	0xbe31624c	-0.17322654
53	0x3fb0082b	1.3752493
54	0x3efd40a4	0.4946338
55	0x3f7588be	0.95911777
56	0x3fbb9c4d	1.4657074
57	0x3f98a68c	1.1925826
58	0x3d65dd84	0.056119457
59	0xbe973c31	-0.2953811
60	0xbd708ddd	-0.05872904
61	0xbce96ad3	-0.02849332
62	0x3e9806c2	0.29692656
63	0xbdba2f5c	-0.09091064
64	0x3e17343c	0.1476602
65	0xbc525ea9	-0.012839952
66	0x3f020a00	0.5079651
67	0x3e0cdbea	0.13755766
68	0xbea61fdb	-0.3244618
69	0xbf0b45ad	-0.5440319
70	0x3f092ad0	0.5358095
71	0xbd3e0439	-0.046390746
72	0xbe178247	-0.1479579
73	0x3de8b864	0.11363295
74	0xbef86688	-0.48515725
75	0xbe1980a7	-0.14990483
76	0xbdc9aab1	-0.0984701
77	0x3f0ff1bd	0.5622824
78	0xbec5ff99	-0.38671568
79	0x3d855971	0.065112
80	0x3dd283db	0.10279056
81	0x3e77a6ae	0.24184677
82	0x3fd8ff59	1.6952926
83	0x3fa76bcb	1.3079771
84	0x3fa87b1e	1.3162572
85	0x3f9959c5	1.198052
86	0x3f7eef35	0.9958375
87	0x3fd270ac	1.6440635
88	0x3edc7e85	0.43065277
89	0x3fa4dd79	1.2880088
90	0x3fc771f4	1.5581651
91	0x3f2a99eb	0.6664111
92	0xbea3be13	-0.31980953
93	0x3dc25f65	0.09490851
94	0x3db3288f	0.0874797
95	0x3c6b01bc	0.014343675
96	0x3e96d603	0.29460153
97	0x3efedd5b	0.49778256
98	0x3e8641f0	0.2622218
99	0x3f3b16af	0.7308149
100	0x3f0c5e1e	0.5483111
101	0x3ef4d6bf	0.47820088
102	0x3d807ab4	0.06273404
103	0x3ec79b25	0.38985553
104	0x3f5c8f3a	0.86156046
105	0xbdb01977	-0.08598607
106	0x3ef21c9a	0.47287446
107	0x3d40f294	0.04710634
108	0x3e8e132b	0.27749
109	0x3ef17703	0.4716111
110	0x3e55cbe3	0.20878558
111	0xbef49022	-0.47766215
112	0xbee7b60e	-0.45256084
113	0x3f904e98	1.1273985
114	0x3f7ba380	0.98296356
115	0x3e3d7eac	0.18505353
116	0x3fa4bcc0	1.2870102
117	0xbd0fdc12	-0.035121985
118	0xbf250a02	-0.64468396
119	0x3f28bd6f	0.6591405
120	0x3fabb1e3	1.3413662
121	0xbdccaea2	-0.09994246
122	0xbf06b3b2	-0.52617943
123	0xbea73cc5	-0.3266355
124	0xbf93e5dc	-1.1554523
125	0xbf823f5a	-1.0175583
126	0xbec0794c	-0.37592542
127	0xbee6f82f	-0.45111224
128	0x3ebc0d74	0.36729014
129	0x3ee249a5	0.4419681
130	0xbf26cc3d	-0.6515539
131	0x3dae7a82	0.0851946
132	0xbd48b1fd	-0.048997868
133	0x3ec4db55	0.38448587
134	0x3e30ed98	0.17278135
135	0xbf228eb7	-0.63499016
136	0x3e242e39	0.16033258
137	0x3e517f4a	0.20458713
138	0xbddab427	-0.106788926
139	0x3f239cdd	0.6391123
140	0xba559f00	-0.0008148998
141	0x3ee82ea0	0.45348072
142	0xbe90a755	-0.28252664
143	0x3eb6bd90	0.356915
144	0xbec34b99	-0.38143614
145	0x3f072393	0.52788657
146	0x3e09ec21	0.13468982
147	0x3ed2dd7d	0.41184607
148	0x3f1bd078	0.60864973
149	0x3f12fa90	0.5741358
150	0x3f5b501b	0.85669106
151	0x3f6d304f	0.9265184
152	0x3ef9234b	0.4865974
153	0x3f9ffde8	1.2499361
154	0xbce864b1	-0.028368326
155	0x3f36221a	0.71145785
156	0x3fb89833	1.4421448
157	0x3f452b70	0.77019405
158	0x3f79e3aa	0.9761301
159	0x3e32c389	0.17457403
160	0x3f882932	1.0637572
161	0x3d2965a9	0.041356716
162	0xbe1c8559	-0.15285243
163	0xbda34c4e	-0.07973538
164	0xbed96a39	-0.42463854
165	0xbe4a306d	-0.19745035
166	0x3f05eea9	0.5231729
167	0x3eeee2a7	0.46657297
168	0x3f537057	0.8259329
169	0x3e54f006	0.20794687
170	0xbf0ef82e	-0.5584744
171	0xbd10c0eb	-0.03534023
172	0xbf73dc49	-0.95258003
173	0xbf3e038c	-0.7422416
174	0x3da2d233	0.079502486
175	0xbd2f1784	-0.042747036
176	0xbecfa953	-0.40558872
177	0x3e0c1e63	0.13683467
178	0xbee9b973	-0.456493
179	0xbf0fc0c0	-0.5615349
180	0xbe808b14	-0.25106108
181	0x3f9da5c1	1.2316209
182	0x3cea855e	0.028628048
183	0xbf4d4517	-0.8018355
184	0x3f3aa98e	0.7291497
185	0x3f49287f	0.7857742
186	0xbecc9d8f	-0.39963958
187	0x3d4615f9	0.0483608
188	0x3f31c1dd	0.69436437
189	0x3f663b82	0.8993455
190	0x3f8946d0	1.0724735
191	0x3f94b1e4	1.1616788
192	0xbe3f9e1b	-0.18712656
193	0x3ed3349b	0.41251072
194	0x3f811db1	1.0087186
195	0x3f115a28	0.5677819
196	0x3f3c2bb1	0.7350417
197	0x3e5c0e7a	0.21489897
198	0xbda13d00	-0.07872963
199	0xbf54a0a8	-0.8305764
200	0x3eaa2b1f	0.33236024
201	0x3f9f6324	1.245213
202	0x3f141560	0.57845116
203	0x3f422670	0.758399
204	0x3e3c474d	0.18386574
205	0xbeeebcb1	-0.46628335
206	0x3d156dc4	0.036481634
207	0xbf1fa2c6	-0.6235775
208	0xbebcbb50	-0.36861658
209	0xbddf05ef	-0.108898036
210	0x3e9740e8	0.29541707
211	0xbe3604d2	-0.17775276
212	0x3e4cb13d	0.19989486
213	0x3de7712d	0.113008834
214	0xbccbef43	-0.024894362
215	0xbf35c573	-0.7100441
216	0xbf420aec	-0.75797915
217	0x3d55ec84	0.052227512
218	0xbec21f15	-0.3791434
219	0x3eede10b	0.46460757
220	0xbea00ab2	-0.3125816
221	0x3fa36731	1.2765867
222	0xbe88cfa4	-0.26720917
223	0x3e0614ce	0.13093874
224	0x3e53ffc0	0.2070303
225	0xbf248824	-0.64270234
226	0xbe82e419	-0.2556465
227	0x3ed8da5c	0.42354095
228	0x3eea3a80	0.45747757
229	0x3d43de41	0.04781938
230	0xbe7e214a	-0.24817386
231	0x3f8a4c80	1.0804596
232	0x3f1d4684	0.61435723
233	0xbeb04936	-0.34430856
234	0x3f0f2832	0.5592071
235	0x3fad64e5	1.3546416
236	0x3fd2b069	1.6460086
237	0x3f6e421e	0.93069637
238	0x3f34a3aa	0.7056223
239	0x3f214816	0.6300062
240	0x3efab141	0.4896336
241	0x3f7f9c1a	0.9984757
242	0x3f9c21da	1.2197831
243	0x3ee3418b	0.44385943
244	0x3fa0acbe	1.2552717
245	0x3f73b132	0.95192254
246	0xbf46f4c8	-0.77717257
247	0x3e57e135	0.21082003
248	0x3f2e2ac8	0.6803403
249	0xbe9e2233	-0.30885467
250	0x3f3895f4	0.7210381
251	0x3f3ef7b9	0.74596745
252	0x3f697877	0.9119944
253	0x3fbf457b	1.4943079
254	0x3f45ecc0	0.77314377
255	0x3ece797b	0.40327057
