models/ncd/checkpoint.pt (torch_old, 129345 bytes, 7 tensors)

k_difficulty.weight f4 [903, 22]
00000000: a344 34bf 24ae e8be 52c7 77bf 1664 f5be
00000010: e93d ccbe c960 09bf ae13 e5be 3f5f 90bd
00000020: 8add 0bbf fe1c d0be da44 22bf 661c 01bf
00000030: 8f1f cfbe 3151 e9be 9c26 60bf 20c5 25bd
00000040: efe6 7cbe 8edd dabe 456e 24bd e0b0 d4be
00000050: 0e15 d2be 271b 2cbf 78cf b8be ccd5 1cbf
00000060: 2f70 deba da52 cebe 2815 85be 763a adbe
00000070: b8ad 26bd 367d 62be 9457 b3be 5c05 f5be
00000080: eb76 8bbe 34c2 16be 8a7d 03bf 7457 b6be
00000090: 584c e4be a58d 4c3c b5c0 91be 9a50 b1be
000000a0: 79ab c3bb a3c6 67be aeea 83bd 553b 8ebe
000000b0: a60e 60be 3bb4 32be 34ef 89be 3b62 d7be
000000c0: d43c 4dbd cdc5 b4be 4032 013d 2a92 d1be
000000d0: 97ee c7be 08d7 47be 394a 67be 27f1 82be
000000e0: afb1 aebe 79fc 7bbe e1d4 80bc 506c 9fbc
000000f0: 4bcd c9bc 4286 02bf 22c7 f83b d6da a1bd
00000100: bf79 b4be 3244 15be 3914 95bf 3a7f 0fbf
00000110: 9cb1 2abf 7927 77bf 1f97 67bf 7305 95bf
00000120: b2f9 f9be 1121 02bf 96bf 53bf 779b 8cbf
00000130: 92b5 63bf 575c 4fbf c83f 2dbf 9680 07bf
00000140: e90b 33bf 5517 09bd b43b 30bf 0665 57bf
00000150: 9ecd 08bd 96de 06bf 0106 6ebf d4f2 14bf
00000160: 6d01 c3be b8f9 85be df99 abbe 5700 d5be
00000170: 26ef f0be 11d5 f8be 423c c9bd c08c b9be
00000180: f477 10bf a0fb 6bbe 1353 f0be f3ec 55bf
00000190: 2861 34bd 6495 b1be fb43 a1be d346 953d
000001a0: 2f8f afbe d1bf 6fbd 18ee 753b 5f2a 56be
000001b0: bb9c 49be 64cd 08bf 2086 b3be a57b 1dbf
000001c0: 0ef5 85be 8490 f8be ba40 b4be 0dc4 f1be
000001d0: d50a 9cbe 580a 33bf 9e95 b8be 4473 eebe
000001e0: 002c 22bd 7f13 a9be 28fd 70bf 716c cdbd
000001f0: da03 a7be b264 c43c fbb6 86be 3947 a9be
00000200: 915c 1c3c 12bf acbe 4291 f9be 6b53 23bf
00000210: c6f9 9ebe 2046 0bbe eb1e 00be 9cbf d7be
00000220: f7a0 0cbf 5c5c 7fbe 45c0 eabe b21a 2fbe
00000230: df24 0bbf 3fdf 66be 391b d4be 3eff 95be
00000240: 5ce2 96be 46ab 8abe b065 c1be 7bf1 483d
00000250: cfe5 75be e193 d9be ee69 413d 23da 86be
00000260: 76c8 cbbe 7325 8dbe 7ddb 03be 733f bdbc
00000270: a4a3 86bb 6a78 52bc 2628 1ebb 652b 373d
00000280: 19dd 573e d561 303e 758d b43e be6f 5b3e
00000290: 1060 94bd dc55 ee3d 740f 1fbd ed3d 8c3e
000002a0: 911c afbd 56ec 473c 41e6 5a3e efc0 b23d
000002b0: d32b 5c3d b9e8 223c 110a 0c3d 666c b93e
000002c0: 18f0 cfbc b124 ba3d a184 c13d e9ff d1bd
000002d0: 047b 2fbe 1533 fa3d 9b6f 9cbc 0609 18bf
000002e0: 89f3 003e a3a8 083c fc8f 12be 684b 683c
000002f0: b035 e9be 5f91 c6be 9e58 2d3e e3a4 8ebd
00000300: ed3c d23d 2ddd e93d 1cbe 28bd 0c85 b1bd
00000310: cf95 89bd de9f 423e 52e8 a8be 86f7 e6ba
00000320: 400e b9bd fba6 893c dc6b 133e 1560 973d
00000330: 58bb c1be 1a54 d2be 00b2 94bd f460 953d
00000340: ebde 16bd 71b2 edbc 7019 f2b9 fc21 babd
00000350: 9237 e63a 0fb0 c33d 5972 133e 1589 a1be
00000360: e741 86bc 79c4 4e3d 7f89 333e a8ef aabe
00000370: 92f6 0f3e 3684 313e f51a 1f3e c83d a3bc
00000380: 0475 f4bc 769f 6b3e cff5 38be 49cb a93d
00000390: 6895 403e d967 803e 4c86 a43d 4497 b03b
000003a0: 26fe 2f3e cfc1 a03e 139a ff3d 0404 163d
000003b0: 15fc acbd d21a 7c3e 811c 033c 0154 a63c
000003c0: f107 343d 5366 2dbe 2c37 333e 27d9 6c3d
000003d0: 2da2 733e 2082 39be 8a1c 3bbe 1f91 b43c
000003e0: fcda 843e 042c c3be fd0a 963e c4b3 843b
000003f0: aca4 16bd 95a7 5b3e 3383 67be c61a 72bd
-0.7041723 -0.4544536 -0.96788514 -0.47927922 -0.39890984 -0.5366331 -0.44741577 -0.07049417
-0.54634917 -0.4064712 -0.6338631 -0.5043396 -0.40453765 -0.45569757 -0.87558913 -0.040471196
-0.24697469 -0.42747158 -0.040144224 -0.41541195 -0.41031688 -0.6722893 -0.36095786 -0.6126373
-0.0016970689 -0.40297586 -0.25992703 -0.33833665 -0.040693015 -0.22118077 -0.35027754 -0.4785565
-0.27239165 -0.1472252 -0.5136343 -0.35613596 -0.44589496 0.012484943 -0.28467336 -0.34631807
-0.005971369 -0.22634368 -0.06441246 -0.27779642 -0.21880588 -0.17451565 -0.2694031 -0.4206713
-0.05010684 -0.3530716 0.031542063 -0.40931827 -0.39049217 -0.19515622 -0.22586907 -0.2557461
-0.34119937 -0.2460803 -0.015726509 -0.019460827 -0.024634024 -0.5098611 0.007592098 -0.07903068
-0.35249135 -0.14576796 -1.1646796 -0.5605351 -0.6667726 -0.96544605 -0.9046497 -1.1642288
-0.48823315 -0.50831705 -0.8271421 -1.0984944 -0.8894893 -0.81000274 -0.6767545 -0.5293058
-0.6994005 -0.033469517 -0.688411 -0.84138525 -0.033399217 -0.5268339 -0.9297791 -0.58183026
-0.38087025 -0.26167083 -0.33515832 -0.41601822 -0.47057456 -0.48600057 -0.098259464 -0.36240196
-0.56433034 -0.23045206 -0.4693838 -0.8356468 -0.044037968 -0.34684289 -0.31497177 0.07288899
-0.34288928 -0.05853254 0.0037525948 -0.20914601 -0.19688694 -0.534384 -0.35063267 -0.6151679
-0.26163524 -0.48547757 -0.35205632 -0.47219887 -0.30477014 -0.6993766 -0.3605165 -0.46572316
-0.039592743 -0.33022687 -0.94136286 -0.10030449 -0.32620126 0.023973797 -0.26311478 -0.3306215
0.009543554 -0.33739525 -0.48743635 -0.6379916 -0.31049937 -0.1360097 -0.12511794 -0.42138374
-0.5493311 -0.24937576 -0.45849815 -0.17100027 -0.54353136 -0.22546099 -0.4142702 -0.29296297
-0.29469573 -0.27083796 -0.37772894 0.04905842 -0.24013446 -0.42495635 0.047220163 -0.263383
-0.39801377 -0.27567634 -0.12876697 -0.023101544 -0.004108863 -0.012846092 -0.0024132817 0.04471912
0.21080436 0.1722482 0.35264173 0.21429345 -0.07244885 0.1163747 -0.038833097 0.27390996
-0.085503705 0.012202343 0.21376897 0.087282054 0.05375273 0.009943181 0.034189288 0.36215514
-0.02538304 0.090890296 0.09449125 -0.10253889 -0.1713677 0.122167744 -0.019096186 -0.5938877
0.12592901 0.008340987 -0.14312738 0.0141781345 -0.45548773 -0.38782784 0.16928336 -0.069650434
0.10265527 0.11419139 -0.041196927 -0.08667955 -0.06718027 0.19006297 -0.32989746 -0.0017621375
-0.09035921 0.016803255 0.14396614 0.07391373 -0.37838244 -0.4107979 -0.07260513 0.07293883
-0.036833685 -0.029015752 -0.0004617679 -0.09088513 0.0017564169 0.09555065 0.14399089 -0.31549898
-0.016388847 0.05048034 0.1753292 -0.33385968 0.14058903 0.1733559 0.15537627 -0.01992692
-0.029840954 0.23010048 -0.18062519 0.08290727 0.18806994 0.2507923 0.080334276 0.005389126
0.17186794 0.31397864 0.12480559 0.036624923 -0.08446518 0.24619606 0.008002401 0.020303728
0.043952886 -0.16933565 0.17501515 0.05782428 0.23792334 -0.18116045 -0.18272606 0.022041855
0.25948322 -0.3811952 0.29305258 0.00404975 -0.036778137 0.21450646 -0.22608642 -0.059107564

e_discrimination.weight f4 [903, 1]
00000000: 0f40 613f 6a44 ee3d 7359 f23e ff43 b33f
00000010: b419 483f e481 1a3f 7dca 0c3f a5b5 b03e
00000020: 49c2 393e 4b31 10be 6f79 89be 1ff4 a4be
00000030: 4a36 43bc 9b7a 07be 4241 eb3e c01a a43f
00000040: 9337 e03c caae 783f 62f6 053f 847f 213f
00000050: bd4b 6c3e 2418 303f ef5c 79be 877c 52be
00000060: 208d a53f e813 363f 0794 ca3c 73f9 7a3f
00000070: b2c6 1c3f fd6c aebc 37bb fc3e cef8 c83e
00000080: dbf0 6b3f c11c 8d3c 7d9c 943e d7da b4bd
00000090: 94b0 783e 0456 fe3e 2171 0f3e 6349 ed3e
000000a0: 5c28 a23f 91e2 ac3d 8461 213f 79df 2bbd
000000b0: 8816 1dbe 0531 453d cda9 023f 6630 b4be
000000c0: 7b3d 8cbc 1f4a 4e3f 99be 5d3d 4c5e 22bd
000000d0: ca03 6a3d e87b 853f 68b9 603f 2fbd 3c3f
000000e0: 6661 223f 5140 283f b5be ac3e 355b 163e
000000f0: b986 c6bd bc5c be3e fe2e 5ebe 745f fdbe
00000100: 8ed1 ef3c 61e4 c13d c204 b43e ec29 8b3d
00000110: 675a babe 21e7 0ebf bc1e 2cbf a186 adbe
00000120: 3705 a83e 7690 0abf c0e6 68be ef70 11be
00000130: 4eff 403e 06b8 cb3e 3d17 82bc 4b11 da3d
00000140: 0363 e5be 7502 053f 2040 723f 470c c23e
00000150: 5473 1e3f de13 133f eeaf c43d a7c6 893f
00000160: ed05 7c3f 27fc 803f 3bf2 393f 2a58 ab3f
00000170: ab37 5d3e 809f 413f ff1b 653f 00fa 673e
00000180: c68c c73e ecde 963f 583c 233f 1d2d ac3f
00000190: 35b3 d33f 254e 8b3f 09b8 fc3e 7ee7 72bf
000001a0: bbde f43c 6811 4fbe 51c0 da3e c949 3c3f
000001b0: 4fe1 483f 0b96 b33e ade8 903f 4032 433f
000001c0: 04ee 143f 69c5 633f 7ffb 903e e20d 283f
000001d0: 4515 403f 07d2 7fbe 0d22 7c3e 5ffd e93c
000001e0: ba28 a53d 8f6e 08bf 3e03 12be d1f3 af3c
000001f0: b79e 683e 08a8 f03e 4446 27bf 3aaf 00be
00000200: 11e0 a1be 0590 6fbe 26c0 8ebd 4bd1 223e
00000210: 082b 00bf 8aee 133e e755 1cbf 998d 513e
00000220: a02d f3be 81c2 abbe 0d73 24be de3a 8bbf
00000230: 005f b8be 6323 9e3e 7906 2a3f fa6a 473f
00000240: 0ffe 503e 24f9 28bf 83dc 2a3e 73e8 873f
00000250: f0da c5bd 4fd3 023f c05e 513f 4637 c13d
00000260: 9430 3f3c 5da5 843f f33d 033c a68e d8bc
00000270: 7caf 213f be1b c23e b56c c03e eb7b 2e3f
00000280: 297c f23e 91a0 3f3e d7be 533f 5d63 26be
00000290: e781 72be 9c06 33bf 9c06 47bd 0b22 c5be
000002a0: 3e42 b33e 18d0 9bbe 365b 493f 0158 ea3e
000002b0: 0402 ae3e 577e 2b3f d3ed e13e dc5a dd3e
000002c0: 815d e93e 4a74 2a3f e7ff 183f e211 713b
000002d0: 9922 863e fa70 163f 55c3 2a3f 062b 2b3f
000002e0: a8bc 293f c660 f33e fc73 953e 6dd5 8c3e
000002f0: 07e7 083f 2292 d53e 351c c33d 47b6 033f
00000300: 7d6f bf3f ac6f 8f3d efab 493f 76ab b73e
00000310: 32bc 893f 98de 90bd 90a0 db3e 04a7 a0bc
00000320: 3ebf 9b3f 7fb3 003f a70d 12be 11ec 9b3e
00000330: 7a96 84be 3c1b 403f afd1 1fbf 2447 4a3f
00000340: b724 eb3e 8f1d 523f 31b3 75be 5721 8b3e
00000350: 28f1 76bb 77c6 253f c0d9 373f bc3a f0be
00000360: 1b42 78be 9662 733e 2021 2c3e f082 433f
00000370: 7684 be3e 22d8 723f 7869 2f3f c8d3 f7bc
00000380: 1106 2dbf 5fc7 8c3f 97c2 a13e b667 b43e
00000390: 45bb 023f 1779 27be 16e7 b53e d5c0 3d3f
000003a0: d4ba 2e3e 83e2 a53f f072 82be 2ca9 973f
000003b0: d906 953f 87d5 133f 0460 0cbd f3ee 183f
000003c0: dd6b ea3e 34b4 703f 7a8f 173f 394e 223f
000003d0: d0c0 683f e4ee 0d3f b0d8 993c 1504 473e
000003e0: b5bc b93e 1d75 643f fb52 dd3e 0a4b 7dbd
000003f0: 412d 3a3f 0786 853f 6887 5b3e 8608 11bf
0.8798837 0.11634143 0.4733387 1.4005126 0.7816422 0.6035445 0.5499647 0.34513584
0.1814052 -0.14081304 -0.2685046 -0.322175 -0.011914799 -0.13230364 0.45948225 1.2820663
0.02737025 0.97141707 0.52329075 0.630852 0.23075767 0.68786836 -0.24351858 -0.20555316
1.2933693 0.71124125 0.024728788 0.9803688 0.61240685 -0.021292204 0.49361584 0.39252323
0.9216439 0.017225625 0.2902564 -0.08830803 0.24286109 0.49675 0.14007999 0.46345052
1.2668567 0.084416516 0.6303942 -0.041961167 -0.15340626 0.04814245 0.51040345 -0.35193175
-0.01711916 0.8058185 0.054136846 -0.03964071 0.05713252 1.0428438 0.8778291 0.7372617
0.6342987 0.6572314 0.33739248 0.1468323 -0.09693665 0.37180126 -0.21697614 -0.49486887
0.029274728 0.09467388 0.3515988 0.06795105 -0.36397097 -0.55821425 -0.67234397 -0.33891776
0.3281648 -0.5412668 -0.22744274 -0.14203237 0.18847391 0.39788836 -0.015880222 0.106478296
-0.44802102 0.51956874 0.94629097 0.37899992 0.61894727 0.5745219 0.096038684 1.0763749
0.9844654 1.0076951 0.7263524 1.338628 0.21603267 0.75634 0.89495844 0.22653961
0.3897459 1.178678 0.6376395 1.3451267 1.6539065 1.0883223 0.49359158 -0.9488448
0.029891362 -0.20221484 0.4272485 0.7355009 0.78468794 0.3507541 1.1321007 0.7624855
0.58175683 0.889731 0.28316876 0.65646183 0.75032455 -0.24982463 0.24622364 0.0285632
0.080644086 -0.532937 -0.1425905 0.021478565 0.22716795 0.47003198 -0.6534159 -0.12566844
-0.31616262 -0.23394783 -0.06970243 0.15900151 -0.5006566 0.14446464 -0.61068577 0.20464171
-0.47495747 -0.33546832 -0.16059513 -1.087734 -0.3600998 0.30886373 0.66416126 0.7789761
0.20409416 -0.6600516 0.16685681 1.0617813 -0.096609 0.5110368 0.817852 0.09434371
0.011669297 1.0362965 0.008010375 -0.026435208 0.6315839 0.3791179 0.37582937 0.68157834
0.47360352 0.18713595 0.82713073 -0.16248842 -0.23682366 -0.6993196 -0.048590288 -0.38502535
0.35011476 -0.304322 0.786548 0.45770267 0.33985913 0.66989654 0.44126758 0.43233383
0.4557915 0.66583693 0.59765476 0.003678434 0.2619827 0.5876614 0.66704303 0.66862524
0.6630349 0.4753477 0.29190052 0.2750658 0.5347752 0.41713053 0.095268644 0.5145001
1.4955899 0.070037216 0.78777975 0.35873002 1.0760558 -0.070737064 0.42895937 -0.01961089
1.2167737 0.5027389 -0.1426302 0.30453542 -0.25896055 0.75041556 -0.62429327 0.790148
0.4592645 0.8207635 -0.23994137 0.27173874 -0.0037680361 0.6475596 0.71816635 -0.4691981
-0.24243967 0.23768076 0.16809511 0.7637167 0.37210435 0.9486104 0.6852031 -0.030252352
-0.6758738 1.0998343 0.31593773 0.35235375 0.51067 -0.16354786 0.35527867 0.74122363
0.17063457 1.2959751 -0.25478315 1.1848502 1.1642715 0.5774769 -0.034271255 0.5973961
0.45785418 0.9402497 0.592033 0.6340061 0.9091921 0.55442643 0.018780082 0.19435151
0.36276785 0.892412 0.43227372 -0.06183914 0.727253 1.0431527 0.21438372 -0.5665363

prednet_full1.weight f4 [128, 22]
00000000: 048f e23c 07b4 813e 0893 cb3e 110a b73e
00000010: e8fc 8e3b 8925 6b3f 4e1a bd3a 6e31 803e
00000020: a6e9 8b3e 69af 0f3f 973a 343f c29d 173e
00000030: 16dd 193d 95c4 0d3e 66b4 a03e 0000 0000
00000040: 185d 9a3e 9639 423e 0000 0000 bcde ac3e
00000050: 777d b43e 6e8a d53d 9de4 5b3d 0073 863d
00000060: a2a9 073f 1732 0d3f 58c2 9e3e b500 7a3f
00000070: a993 833b 0811 1a3e ddca 6d3e 0454 ff3e
00000080: f20f 223e 6461 cd3e 72c7 1e3e db71 4a3e
00000090: 8d37 bb3e 0000 0000 56e4 173e b3a8 6a3e
000000a0: 0000 0000 05dc 1e3e 12ff 773e 1657 403e
000000b0: 40d3 7f3e aa39 9e3e 87eb 513e e586 af3e
000000c0: 85e0 ab3d 0447 a43f d436 813e 4817 063d
000000d0: e520 df3e b5ff e53e fa55 823e 39fa c53e
000000e0: 0ae5 0e3e 6fea 4e3e 4a49 dc3c 0000 0000
000000f0: ea8b 003f 8831 0a3e c7a5 433e 3dbb 9a3e
00000100: 1e26 0b3f a44a 673c bfb8 dd3d 69a3 383f
00000110: ddba e43e 1775 8c3e 3281 833c f736 893f
00000120: 3450 d33c 5a3f f13b 1eb2 8e3e a8da 453f
00000130: 3fee 313e 5f8e e93e 381c 6d3d 7ae9 ed3e
00000140: 157a 8b3e 0000 0000 56db 753d 8abf 643d
00000150: 0000 0000 4087 683e 4cab 053f af7b 1d3e
00000160: 9a13 4a3e 462c 353e 8de7 203f e14b 1c3f
00000170: feee e73e 1dce bf3f 4dc7 9e3d 6491 913d
00000180: 4afd 203f 5d70 843f 3f38 a23e 4461 c53e
00000190: a688 cc3e 9a2a c73d 9a93 c13e 28d1 c13b
000001a0: 1281 a23e be81 a63e 4347 b13d dc15 a23e
000001b0: dea6 063f 448e aa3c 8400 113f bebf bb3e
000001c0: ae48 073f 8ec2 b33e 3611 c73c 1917 673f
000001d0: 3161 bd3d baa2 773e 57eb ba3e ef1e f93e
000001e0: bf64 d33e 0bad b93e 446f 873e 2880 193e
000001f0: 06d3 eb3d 3259 893d 81b0 793e 844b 453f
00000200: e2dd 903b e8d3 d13e 04d0 463f 50bc d43e
00000210: dafd 8d3e 7c64 1f3f fb59 093f 7dc8 a13e
00000220: 8a6d 9d3d adcc c13f 5960 b13d e607 c13d
00000230: 1aeb ff3e 5b39 643f 36eb fa3e 3d2f 823e
00000240: d168 4a3e 3ef1 de3d 5acd ce3e 62cb a93e
00000250: 37d7 a93e 23cb 673d 0000 0000 c0a6 803e
00000260: 724b 2b3e 9d53 283e 2204 ba3d 5ca4 8f3c
00000270: 9365 c43e 3d1b b43e 4807 1b3e d9b7 493f
00000280: 81ea 293d c4ad f93d b376 b83e 692c 063f
00000290: 98a1 ef3d e082 893e 7ab8 d73d ae43 323e
000002a0: 782d 213f 0000 0000 a476 f03e a37a 093d
000002b0: 0000 0000 5237 f03e 836c 0b3f 96fc 193f
000002c0: a379 923e 1eb6 f83e 7579 c83e 449d d23e
000002d0: ab86 cf3e 520a c93f 74dd 433e 718a a03d
000002e0: 0924 9c3d dbfb 663e f8b9 6a3e 9bb9 6b3e
000002f0: 3c57 ae3d 2714 883d e7a0 503e 7260 523c
00000300: 1f3f 2d3e a375 123e ffd3 173e 5589 853e
00000310: 1911 0d3e 73ac 833e 170b d73c 6b91 d23d
00000320: b7a2 a13e 428d 413d 10ac 7f3e 2012 903f
00000330: 7ecc 6d3a 4f65 be3d 6bb2 423e b8a9 413f
00000340: 5abe 553e 0527 f83d d92a c73e 7ce3 993d
00000350: 6cad 093f ede5 6b3d ed0f 503c bf1c b23e
00000360: e2ab 703c bbee 343f 5bf0 143f 3922 d03e
00000370: a29a 8a3d 9d86 e93e cec6 693e a03d 513f
00000380: 8e8c 9b3b e628 8b3f 921f e838 4548 f63c
00000390: 6529 f23e 222d 5a3f 9dec 943d 9965 fb3e
000003a0: 9076 6c3e 7ac6 fd3d f803 c73e 0000 0000
000003b0: 2fd1 fa3d 0a1e e53e 0000 0000 d2b9 cb3e
000003c0: 234d e23e f36d 033c e724 343c eed9 a53e
000003d0: 6a90 f43d a86d e23e 2c23 f73d e220 863f
000003e0: 7802 ee3c ea97 623d 057e ce3e 6ec6 163f
000003f0: 2995 393e 9ebf 0c3e 5852 623e 43d7 0d3e
0.027656086 0.25332662 0.39760613 0.35749868 0.004363645 0.9185415 0.0014427395 0.25037712
0.27326697 0.5612703 0.704019 0.14806274 0.03756436 0.13844521 0.31387633 0.0
0.3014915 0.1896728 0.0 0.33763683 0.35251972 0.10426794 0.05368482 0.06564903
0.52993214 0.55154556 0.31007648 0.9765733 0.004015405 0.1504556 0.23221917 0.49868786
0.15826395 0.40113366 0.1550577 0.19769995 0.3656582 0.0 0.14833197 0.22915916
0.0 0.15513618 0.24218395 0.1878322 0.24982929 0.3090337 0.20500003 0.34282604
0.08392433 1.2834172 0.25237143 0.032737046 0.43579784 0.4492165 0.2545622 0.38667467
0.13954559 0.20206617 0.026890416 0.0 0.5021349 0.13495457 0.19106208 0.30220976
0.5435504 0.014116917 0.10826253 0.72124344 0.44673815 0.27433082 0.016052816 1.0719899
0.02579508 0.0073622884 0.27870268 0.7728677 0.1737604 0.45616433 0.05788824 0.4646719
0.2724158 0.0 0.06002363 0.05584673 0.0 0.22707844 0.52214503 0.15379213
0.1973404 0.1769267 0.6285332 0.6105328 0.45299524 1.4984776 0.07752857 0.07107809
0.6288649 1.034679 0.31683537 0.3855077 0.39948004 0.097249225 0.37807924 0.005914826
0.31739098 0.3252086 0.0865617 0.31657302 0.5259837 0.02081979 0.5664141 0.36669725
0.52845275 0.3510937 0.024300199 0.9026962 0.092470534 0.24183169 0.36507675 0.48656413
0.412878 0.36264834 0.26452076 0.14990294 0.11514859 0.06706466 0.24383737 0.7706835
0.0044209817 0.40981984 0.77661157 0.4154992 0.27732736 0.622627 0.53652924 0.31598273
0.076869085 1.5140587 0.08660955 0.09425335 0.49984056 0.8915002 0.49007577 0.25426665
0.19766547 0.10885857 0.40391046 0.3316298 0.33172008 0.05659021 0.0 0.2512722
0.16727999 0.16438146 0.090828195 0.017534427 0.38358745 0.3517703 0.15139496 0.78796154
0.041483406 0.12191346 0.3602806 0.52411515 0.117007434 0.26857662 0.10533233 0.1740863
0.62960005 0.0 0.46965516 0.03356422 0.0 0.46917206 0.5446245 0.6015104
0.28608426 0.48576444 0.39155164 0.4113561 0.4053243 1.5706275 0.19127446 0.078389056
0.07624061 0.22557013 0.22922504 0.23020022 0.085127324 0.06644469 0.2037388 0.012840377
0.1691861 0.14302687 0.14826964 0.2608134 0.13776053 0.25717506 0.026250405 0.102816425
0.31569454 0.047253855 0.2496798 1.1255531 0.0009071304 0.09296667 0.19013374 0.75649595
0.20873395 0.121168174 0.38899878 0.07514092 0.53780246 0.05759232 0.0126991095 0.34787557
0.014689418 0.70676774 0.58179253 0.4065111 0.06767775 0.45610514 0.22829744 0.8173466
0.00474698 1.0871856 0.000110685025 0.030063758 0.47297207 0.8522512 0.07271693 0.4910095
0.23092103 0.12391372 0.38870215 0.0 0.1224693 0.4474948 0.0 0.39790207
0.44199476 0.008021819 0.010995126 0.3239283 0.11941607 0.44224286 0.120672554 1.0478785
0.029053912 0.055320658 0.4033052 0.5889653 0.18123306 0.13744971 0.22101724 0.13851647

prednet_full1.bias f4 [128]
00000000: f5d8 fbbf 1909 02c0 9b8b 0cc0 43e3 01c0
00000010: f23d 0dc0 cd0e 53bf 1fdd 18c0 91b4 e7bf
00000020: d26f fcbf c860 d4bf 3ad3 a9bf 5a98 c4bf
00000030: 1787 d2bf c7c1 acbf 2d58 dabf 1f4b eebf
00000040: 2b84 aebf 5d7d 03c0 8e9a 0cc0 0985 f6bf
00000050: ba89 94bf f7f0 27c0 726c a0bf 1688 fbbf
00000060: baa8 babf d09b e8bf f3b5 98bf 0a24 f0bf
00000070: 8c3e fdbf 530b 11c0 2adb 0ac0 6653 e8bf
00000080: d19b e9bf 8761 12c0 6b38 14c0 e1b4 bdbf
00000090: cd0e aebf ca6b 24c0 396a 9cbf 4277 89bf
000000a0: 697c a9bf eb54 a4bf fc3a f2bf ddda 2ac0
000000b0: d61c a3bf 6800 e8bf 0e6e 09c0 5043 eabf
000000c0: c285 b1bf 8974 7bbf 492a 51bf a9e1 b5bf
000000d0: 117f 04c0 5822 fcbf 64cd b4bf afa7 8abf
000000e0: 8056 57bf a3a2 a0bf f46d 9fbf 10b7 bdbf
000000f0: c349 1fc0 ed88 03c0 8d6d f7bf 9f78 dbbf
00000100: e2d2 19c0 bdaa e1bf 2ee9 fcbf e88a 85bf
00000110: 8f42 8abf db7d babf 3691 f3bf 8d39 29c0
00000120: b917 14c0 43f2 9dbf 85e7 afbf b2ab c6bf
00000130: 2843 03c0 bc7e aebf 8825 91bf 4037 cdbf
00000140: 56a7 76bf a675 f0bf 2e00 f0bf b2e5 c5bf
00000150: 1950 0ac0 cf08 e7bf e84c ebbf 8c41 e6bf
00000160: a265 1bc0 0d74 c6bf bd14 febf 92df 07c0
00000170: 2949 8fbf 26d6 0fc0 7c1f f2bf 3ef3 d9bf
00000180: b37e cfbf ed89 c9bf b0d0 90bf 99a3 04c0
00000190: 77f1 bbbf 5ca6 d5bf 9eb5 0ec0 0a0f debf
000001a0: dae3 06c0 d564 32c0 441d eebf 2cd4 d6bf
000001b0: 0300 01c0 c0c0 d5bf 3c4a e3bf 352f a2bf
000001c0: ad0e a7bf 6170 c0bf 9a68 e0bf d515 12c0
000001d0: 887f edbf 4e72 f6bf 5a5f f1bf 7290 c2bf
000001e0: 14e4 d1bf f204 a3bf e4a3 a7bf 3f24 c3bf
000001f0: 05ce bfbf 01b8 debf 0039 b2bf 559b e8bf
-1.9675585 -2.0318053 -2.1960208 -2.029496 -2.2069058 -0.8244446 -2.3884962 -1.810198
-1.9721625 -1.6592035 -1.3267586 -1.5358994 -1.6447476 -1.3496636 -1.7058159 -1.8616675
-1.3634084 -2.0545266 -2.1969333 -1.9259349 -1.1604531 -2.6240823 -1.2533095 -1.9650905
-1.4582741 -1.817255 -1.1930526 -1.8760998 -1.9784713 -2.2663162 -2.1696267 -1.8150451
-1.8250676 -2.2872026 -2.3159435 -1.4820825 -1.3598267 -2.569079 -1.2219917 -1.073952
-1.3241092 -1.2838415 -1.8924251 -2.6696084 -1.2743175 -1.8125124 -2.1473422 -1.8301792
-1.3868945 -0.98224694 -0.8170515 -1.4209491 -2.0702555 -1.9697981 -1.412518 -1.0832423
-0.84116364 -1.2549633 -1.245543 -1.4821491 -2.488877 -2.0552323 -1.9330307 -1.7146186
-2.4034963 -1.763023 -1.9758661 -1.0433016 -1.0801562 -1.4569658 -1.902869 -2.6441376
-2.313948 -1.2339557 -1.3742529 -1.5521147 -2.050974 -1.3632426 -1.1339579 -1.6032486
-0.96349084 -1.8785903 -1.8750055 -1.5460722 -2.1611388 -1.8049563 -1.8382845 -1.7988753
-2.4280782 -1.5504166 -1.9850079 -2.1230206 -1.1194202 -2.2474456 -1.8915858 -1.7027357
-1.621054 -1.5745217 -1.1313686 -2.0724852 -1.4683064 -1.6691394 -2.229835 -1.734834
-2.107657 -2.7874043 -1.8602681 -1.67835 -2.0156257 -1.6699448 -1.775703 -1.2670656
-1.3051354 -1.5034295 -1.7531922 -2.2825825 -1.8554544 -1.9253633 -1.8857224 -1.5200331
-1.6397729 -1.2735884 -1.309689 -1.5245436 -1.4984747 -1.7399904 -1.3923645 -1.8172404

prednet_full2.weight f4 [64, 128]
00000000: de3d 8d3d 8d3c 033e 35c3 f83c c079 8e3d
00000010: 76f9 1b3e aea1 cc3d a8da 693e 0809 6d3d
00000020: 0f66 683e 42ed d13a 4339 d73c e98c 063d
00000030: e614 543d f0ee 833d 8bb2 453c ef2d 043e
00000040: e6da 5d3b 5374 c83b 0000 0000 885f b13c
00000050: dd5a ca3d 62fc 8f3c 65de fe3b f6a1 493b
00000060: 431d 473d d9a2 923c 554e 3e3c e1f3 a33c
00000070: eccd a53d 22a8 813a 23c2 e93c e715 dd3c
00000080: 9934 793d 949c 833d e26b 213e 685f b33d
00000090: e05b 503c dfb1 c03d 43fd d53c 0f3c 543b
000000a0: f05e 3f3c 0000 0000 9e73 2f3e 6e8a 473e
000000b0: bd39 d23d 0000 0000 93fc b43d 4a44 ca3c
000000c0: 0000 0000 0000 0000 d522 9e3b d1c4 233d
000000d0: 716c 823b 086c ce3a 18e1 333d 5ba7 813d
000000e0: b6fa 283d f416 9c3b 8fc3 3d3d 09d7 a83c
000000f0: 82c0 143e 43af 0b3c 667f fd3b 23b5 a53d
00000100: 3fd4 a13d 0000 0000 ccf7 703d 0000 0000
00000110: 0000 0000 3789 e43b 9823 453e abdb 013e
00000120: 0f1d 8b3d 0000 0000 fe02 983d e888 1d3d
00000130: 0cf3 b93d ab19 683c 0000 0000 a6ad 8e3d
00000140: a5c5 fd3b fca1 ff3c 3209 663c 208a 113e
00000150: 5a85 083d 17f2 bc3c ef21 203e d427 f63d
00000160: 89be 373c 0000 0000 a458 5e3d 41f2 793d
00000170: bdf7 873d cd8e 1f3e e13d 3d3c 8158 083c
00000180: 7d3c 793d bada b83d 067b 053d 212c 193e
00000190: 551b 6c3d baf8 d53c 8565 a53c bc03 b03c
000001a0: d81e 223d 3c92 5f3d ffc4 213e 30ab 0a3c
000001b0: 561a f93c 50b3 2f3c 0000 0000 0000 0000
000001c0: 69c7 c13c 9aa8 983d 0000 0000 0b32 163d
000001d0: 200d 753a fd07 323d 78a3 283c 0554 3d3b
000001e0: 0022 6436 977c 223d b356 cd3c 0000 0000
000001f0: 1b32 8f3d 0000 0000 92e1 953d cb2d 8b3c
00000200: b297 9d3e 87c6 c73e c33d a13e 6027 813e
00000210: d0a3 c93e cc39 b93e 533b a13e 25ff b83e
00000220: 7e11 7b3e a0bc a43e ff17 1b3e 671d 383e
00000230: fe68 a13e 2d93 c23e 7dbb 343e 359a b43e
00000240: 04e8 5c3e c0bf ba3e 31d8 ca3e 2cf9 4a3e
00000250: 577d a93e 9cdf bb3e 1d18 5e3e 62c6 b63e
00000260: e4ca a23e e6b8 c63e 2ec7 023f bdf7 2e3e
00000270: 1c3b 303e f54d 0e3f 0dbc 7a3e 6f17 c43e
00000280: 8fbf 223f e24b b83e 01ef e43e 00f6 9a3e
00000290: 8940 a03e 6e7d 0d3f a54f c03e 16fc d33e
000002a0: 67c2 9b3e cdf2 dc3e df4f 8a3e de85 ab3e
000002b0: 66b4 553e 8bb9 983e 34f1 063e 4a8d aa3e
000002c0: dc4f 963e 092a c03e e75e 633e 5525 ae3e
000002d0: 23fe 923e 8f93 7f3e aaa1 d93e 9c56 bd3e
000002e0: 61b9 9c3e 3294 3d3e 12bd b93e bb04 933e
000002f0: 7a3c 523e 7ddc 643e ef53 883e c755 903e
00000300: fe8d a03e 4752 d73e dc5a 9a3e abe8 b93e
00000310: 1c86 c73e f588 d53e 8451 9a3e b14e e13d
00000320: 23bf 753e 277c c63e 4e26 a53e b384 ed3e
00000330: 05c0 b13e 500b af3e ded8 b23e bca3 a33e
00000340: 8083 573e b5e1 be3e eabf df3e 641a b33e
00000350: ce93 ba3e ee36 0e3f 93b0 c33e 6cba 503e
00000360: 15b8 a23e f8ed 993e 9db4 9f3e 978a 603e
00000370: 0e70 823e 7b77 d03e 6084 c53e 285c 763e
00000380: 8da7 d33e a3a4 f03e 8116 bc3e 0059 023f
00000390: 2cdc 9a3e 8daf b53e d94d dc3e 06ab 773e
000003a0: 2daa 3f3e 84bc 083e 0959 763e 9afb ae3e
000003b0: 1e04 033f a25f bf3e 4823 a53d 4ae1 d33e
000003c0: e4bd c13e 5b01 533e cd09 703e 49be cf3e
000003d0: e3d9 cb3e 1dee 493e 8e6d 993e 4899 973e
000003e0: bbbd 9a3e c619 d43e 982f b93e 352b 8d3e
000003f0: d20e 3b3e e826 303e 09db 9e3e da47 013f
0.06896566 0.12816067 0.03036652 0.06956816 0.1523188 0.099917755 0.22837317 0.05786994
0.22695182 0.0016016143 0.026272422 0.032849226 0.051777743 0.06442058 0.012066494 0.12908147
0.0033852397 0.0061173826 0.0 0.021651998 0.09880612 0.0175764 0.0077779763 0.0030766702
0.04861189 0.017899917 0.0116153555 0.020013751 0.08095917 0.0009892026 0.028534954 0.026987983
0.060841177 0.06426349 0.1576381 0.08758432 0.012717217 0.09408926 0.026121741 0.003238443
0.01168035 0.0 0.17133948 0.194864 0.10264919 0.0 0.08837237 0.024690766
0.0 0.0 0.0048259296 0.03998262 0.0039802124 0.0015748749 0.043915838 0.06330749
0.04125472 0.0047634784 0.046329077 0.02061035 0.14526561 0.008525672 0.0077361343 0.0809119
0.07901811 0.0 0.058830068 0.0 0.0 0.006974365 0.19251859 0.12681453
0.06792652 0.0 0.07422446 0.038460642 0.09079561 0.014166276 0.0 0.069667146
0.0077445083 0.03120517 0.014040278 0.14212847 0.0333303 0.023064656 0.15637945 0.12019315
0.011214861 0.0 0.054283753 0.061022047 0.06639049 0.15581818 0.011550398 0.008321882
0.0608487 0.09026094 0.032588027 0.1495824 0.057643253 0.026119579 0.02019001 0.021486156
0.039580196 0.05458282 0.15797804 0.008463666 0.030408066 0.010723904 0.0 0.0
0.023654656 0.07454033 0.0 0.03666882 0.0009347964 0.04346465 0.01029288 0.002888919
3.3994438e-06 0.0396696 0.025065755 0.0 0.06991979 0.0 0.07318415 0.01698961
0.30779797 0.39018652 0.31492433 0.25225353 0.39382792 0.36176908 0.31490573 0.3613216
0.24518391 0.3217516 0.15145873 0.17979966 0.31525415 0.3800291 0.17649646 0.352739
0.21572882 0.3647442 0.39618066 0.19821614 0.3310344 0.36694038 0.21688886 0.3569823
0.31795418 0.3881294 0.51085174 0.17086692 0.17210048 0.55587703 0.24485798 0.38299128
0.63573545 0.35995394 0.44713596 0.30265808 0.31299236 0.55269516 0.37560764 0.41403264
0.30421755 0.43153992 0.27014062 0.3350057 0.20869598 0.29829058 0.13177949 0.3331092
0.29357803 0.3753207 0.22204171 0.34012857 0.28709516 0.24958633 0.42506152 0.3698014
0.30610183 0.18513563 0.36277062 0.28714547 0.20530882 0.22349735 0.26626536 0.28190443
0.3135833 0.4205496 0.30147445 0.36310324 0.38969505 0.41706052 0.30140316 0.11001337
0.23998694 0.38766596 0.32255787 0.46390304 0.34716812 0.34188318 0.34931082 0.31960857
0.21046257 0.37281576 0.43701106 0.34981072 0.3644089 0.55552566 0.38220653 0.20383614
0.31781068 0.30064368 0.31192484 0.21927868 0.25476116 0.40716156 0.38577557 0.24058592
0.4133877 0.47000608 0.3673592 0.50917053 0.30246103 0.35485497 0.43028143 0.24186334
0.1871726 0.13353163 0.24057402 0.34176332 0.5117816 0.3737765 0.0806337 0.4138282
0.37840188 0.20605986 0.23441239 0.40574864 0.39814672 0.1971974 0.29966396 0.29609132
0.30222878 0.41425914 0.36169124 0.27572027 0.18267372 0.17202342 0.31026486 0.5050026

prednet_full2.bias f4 [64]
00000000: f8f6 41c0 8ddf 1ac0 e848 2cc0 9ade 4bc0
00000010: c0ef 1cc0 4a08 1bc0 46ca 2dc0 3e5e 3fc0
00000020: 1735 47c0 c6f2 22c0 e520 d3bf 49fa 1ac0
00000030: 2a91 51c0 5d03 20c0 0f35 1cc0 2580 41c0
00000040: 8266 d7bf c885 01c0 bcbf 34c0 c33c 3dc0
00000050: b37e 44c0 40fd 0ac0 6e9b 13c0 e3e7 17c0
00000060: 554a 32c0 9a68 3fc0 57a5 36c0 7ad1 27c0
00000070: 9e5e 0ac0 0b33 3cc0 50bf 03c0 5faf 10c0
00000080: c03e 25c0 e057 49c0 9e93 04c0 5c35 2fc0
00000090: 898d 43c0 e057 10c0 4310 3fc0 757e e3bf
000000a0: c319 2fc0 ec72 3fc0 762b 4fc0 4fd7 27c0
000000b0: 18f5 3bc0 0bef 09c0 6a58 49c0 9845 1dc0
000000c0: 8c4d fcbf 8d8c 08c0 34f3 3bc0 8413 0ac0
000000d0: 71d7 40c0 d148 17c0 c2b5 30c0 1c49 44c0
000000e0: 4cd6 41c0 6bbb 38c0 9d7b 30c0 0ecd 03c0
000000f0: b100 2bc0 7e81 52c0 f258 04c0 e06d 4bc0
-3.0306988 -2.4198945 -2.6919498 -3.1854615 -2.4521332 -2.422381 -2.7154708 -2.990127
-3.1126153 -2.5460677 -1.6494414 -2.4215262 -3.274485 -2.5002053 -2.4407384 -3.0234463
-1.6828158 -2.0237904 -2.8242025 -2.9568336 -3.070233 -2.1717072 -2.3063617 -2.3735282
-2.7857869 -2.9907594 -2.8538415 -2.6221604 -2.162025 -2.9406154 -2.0585518 -2.2607038
-2.581955 -3.1459885 -2.0715098 -2.7376318 -3.0555136 -2.2553635 -2.9853675 -1.7772967
-2.7359474 -2.9913893 -3.2370276 -2.6225164 -2.9368343 -2.155215 -3.1460214 -2.4573727
-1.9711165 -2.1335785 -2.936719 -2.1574411 -3.0131495 -2.3638194 -2.7610936 -3.0669622
-3.0287046 -2.886439 -2.7575448 -2.0593905 -2.6719172 -3.2891536 -2.0679288 -3.1785812

prednet_full3.weight f4 [1, 64]
00000000: 44d0 a93d 8fb9 0f3d 06cb 543d 0773 893d
00000010: 2146 303d 4538 4a3d 60ef 943d 8055 483d
00000020: 4651 ba3d e3cc 0d3d 421c 0e3d 8414 013d
00000030: 364c 153d 7d2e 7b3d e0ef 3a3d ff19 8f3d
00000040: eef6 9f3d 8e5e 8e3d ac00 543d dcab c33d
00000050: 00a5 703d 907e 503d e92b 8f3d c8eb 593c
00000060: 8c60 853d 527d 653d eb5b 303d e8db 073d
00000070: 5998 dd3c 3768 ad3d 8f4f 293d f87f 593c
00000080: 300c 8b3d e41b 873d 268f 353d 1e09 a03d
00000090: c278 3c3d ea68 8d3d a7b2 b53c a039 263d
000000a0: 8a4b 453d 6b21 8a3d 502c 853d 9b55 853d
000000b0: 0464 c63d b39e 863d 4c4a c83d 362d 753d
000000c0: 9f0c 2e3d 20db 493d 8fcc a03d 09d8 433d
000000d0: 5d25 b53d b943 363b 8c84 323d bf1c a23d
000000e0: 41f5 e83d 3bc5 c23d fc13 9a3d 2882 873d
000000f0: 1b1f aa3d eb5f 963d d681 b13d 82ab c13d
0.08291677 0.03508907 0.05195143 0.06711393 0.04303563 0.04937007 0.0727222 0.048909664
0.09097533 0.034619223 0.034694918 0.031513706 0.036449634 0.06132363 0.04563892 0.0698738
0.0781077 0.069516286 0.051758453 0.09554264 0.058751106 0.05090195 0.06990797 0.013300844
0.065125555 0.056027718 0.04305641 0.033168703 0.027050184 0.08467143 0.04133564 0.013275139
0.06789434 0.065971166 0.04432597 0.07814239 0.0460136 0.069047764 0.022179915 0.0405823
0.048167743 0.06744655 0.065025926 0.065104686 0.09687045 0.06573238 0.09779796 0.05985757
0.042492505 0.04928124 0.078515165 0.04781345 0.08845017 0.0027811362 0.043583438 0.07915639
0.113749035 0.09510275 0.07523343 0.06616622 0.08306714 0.07342514 0.08667342 0.09456541
